Mushroom Identifier App/Dino model/dino_linear_classifier_best.pth (torch, 17397 bytes, 2 tensors)

fc.weight f4 [10, 384]
-0.011062257 0.031499125 0.13160895 -0.025310839 -0.014786113 0.03417264 -0.016092287 0.08202962
-0.05628625 -0.032869264 -0.023942564 0.009704084 -0.07570931 -0.0019313486 0.0007992457 0.008462556
0.0043388624 -0.023920318 0.0674178 0.032031044 -0.035437852 0.030095771 -0.072556816 -0.055911656
-0.013183549 -0.043813456 0.029250965 -0.05942521 -0.03775989 0.032040015 0.06027404 -0.014934798
-0.031589907 0.015903281 -0.0021880164 0.06648209 0.045747243 0.048496373 0.17632508 0.0671405
-0.08716171 -0.0030559357 -0.0017488325 0.0058282735 0.07041028 0.03764056 0.033897642 0.15197368
0.04402918 -0.022909043 0.013515088 0.0046511353 0.02263017 -0.07518423 0.04577872 -0.023816261
0.011869446 0.04304452 0.003018455 -0.0513813 -0.05553956 -0.019751364 0.034103017 -0.1549837
-0.043152377 0.021097401 0.01755813 -0.058887422 0.046068326 -0.035823897 0.031366855 -0.06089496
-0.05503435 -0.008684543 -0.014425779 0.010216365 0.06538763 0.040755354 -0.033894368 -0.024929376
0.03400943 0.07343553 -0.07221311 0.022215981 0.008513365 -0.048420552 2.1468031e-05 0.106575154
-0.026254065 0.003024538 0.069106676 -0.04683947 -0.13450581 -0.002832259 -0.01180544 -0.012797886
-0.071836405 -0.011920713 0.04632649 0.014573375 0.1193188 -0.075336605 0.039848648 -0.0428791
-0.07353785 0.051422723 -0.027974246 0.016107481 -0.072988026 -0.0043519125 0.015190024 0.12392097
-0.027341908 0.052692614 0.032485016 0.06824403 0.028793188 0.067559965 0.045581456 0.11336764
0.051187098 0.12774813 0.039393086 0.040263966 -0.029157963 0.022284461 -0.03660079 0.013225984
-0.072683215 -0.10699973 -0.13613613 0.14630875 0.0149769755 -0.03312673 0.044639308 0.028981872
-0.0678713 -0.007070601 -0.049857475 -0.04556661 0.06908687 0.008479932 0.0011720797 -0.030545142
-0.06597233 -0.055359703 -0.045515765 -0.01634071 -0.01822747 0.007938715 0.08165151 -0.05819455
0.042527124 0.019093113 -0.06449298 -0.08520749 -0.029376948 0.003440175 -0.0039984426 0.06712265
-0.008532671 -0.011223064 0.078524895 -0.040514223 0.08203303 -0.004999573 -0.058110032 0.023023598
-0.041674722 -0.06639803 0.03442231 -0.041590538 0.10377315 0.048586853 -0.022187693 -0.027453182
0.029705966 0.010279533 0.016698878 0.039336763 -0.05691094 0.027803782 -0.06574211 -0.06284133
0.004226537 0.040502127 -0.024109349 -0.035462085 0.08498516 0.047096875 0.061468955 -0.07778377
-0.085206255 0.0081696035 0.032884423 0.058667384 -0.049938545 0.03978438 0.06837445 0.04103067
-0.01355247 -0.020560782 0.038821664 0.010341232 0.10831561 -0.010100767 0.03358001 -0.031977672
-0.00020188463 0.013833414 0.04595571 -0.0686503 0.06679153 0.013052252 -0.09222766 -0.007849065
-0.0823857 0.03154132 0.06543606 -0.027932277 0.04238883 0.029549897 0.040283423 -0.013274492
-0.002712035 -0.028435793 0.046049383 0.057413634 -0.039315443 -0.035644807 0.002449994 0.002874498
0.018429555 0.020464387 -0.07605595 0.01284517 -0.01548519 -0.079288825 -0.06999212 -0.06392493
0.0019556761 0.024314463 -0.017219933 0.0047668875 0.059240922 0.086351745 0.04046791 -0.04169662
0.03117102 0.059826646 0.063637726 0.018492011 -0.04907827 -0.045144763 -0.11360541 0.026029384
00000000: 783e 35bc 3a05 013d 7fc4 063e ad58 cfbc
00000010: 7441 72bc 9cf8 0b3d f9d3 83bc 25ff a73d
00000020: 698c 66bd eca1 06bd 3223 c4bc e1fd 1e3c
00000030: 7c0d 9bbd 4e25 fdba 7984 513a 88a6 0a3c
00000040: 042d 8e3b 8bf4 c3bc 5812 8a3d fc32 033d
00000050: 4827 11bd 688b f63c ab98 94bd 9f03 65bd
00000060: d0ff 57bc bd75 33bd b89f ef3c d967 73bd
00000070: 1daa 1abd 643c 033d e9e1 763d 15b1 74bc
00000080: 6b64 01bd 9947 823c d364 0fbb c327 883d
00000090: 7661 3b3d 22a4 463d 908e 343e f580 893d
000000a0: d781 b2bd 1846 48bb 1539 e5ba 1afb be3b
000000b0: 4433 903d fd2c 1a3d 41d8 0a3d fd9e 1b3e
000000c0: f157 343d bfab bbbc 636e 5d3c 8d68 983b
000000d0: e862 b93c 31fa 99bd 7882 3b3d 521a c3bc
000000e0: 1178 423c 734f 303d 46d1 453b 3375 52bd
000000f0: 737d 63bd 9dcd a1bc 9baf 0b3d 0cb4 1ebe
00000100: 8cc0 30bd 75d4 ac3c 11d6 8f3c f033 71bd
00000110: 24b2 3c3d 14bc 12bd 887a 003d fe6c 79bd
00000120: b36b 61bd 9d49 0ebc 1a5a 6cbc 8a62 273c
00000130: f3e9 853d 16ef 263d d2d4 0abd b138 ccbc
00000140: 794d 0b3d 5e65 963d 78e4 93bd 4afe b53c
00000150: a47b 0b3c a154 46bd 3f16 b437 1344 da3d
00000160: c412 d7bc 5437 463b cd87 8d3d beda 3fbd
00000170: e4bb 09be 6c9d 39bb 9b6b 41bc 39ae 51bc
00000180: f71e 93bd 184f 43bc d8c0 3d3d 2ac5 6e3c
00000190: 6a5d f43d 144a 9abd 5638 233d ffa1 2fbd
000001a0: 039b 96bd a2a0 523d 3f2a e5bc d6f3 833c
000001b0: bf7a 95bd 7d9a 8ebb 94df 783c 47ca fd3d
000001c0: 23fc dfbc 36d4 573d 020f 053d 87c3 8b3d
000001d0: b1df eb3c e15c 8a3d 9fb3 3a3d 4b2d e83d
000001e0: 90a9 513d 68d0 023e a55a 213d d4eb 243d
000001f0: aedc eebc e78d b63c b6ea 15bd ccb1 583c
00000200: f0da 94bd ad22 dbbd 4567 0bbe f6d1 153e
00000210: fd61 753c e5af 07bd b5d7 363d 646b ed3c
00000220: 1c00 8bbd 80b0 e7bb 5a37 4cbd 0ea4 3abd
00000230: 6b7d 8d3d 6aef 0a3c 78a0 993a ce39 fabc
00000240: 801c 87bd dbc0 62bd bd6e 3abd f4dc 85bc
00000250: c651 95bc 6211 023c e838 a73d 695d 6ebd
00000260: ec30 2e3d 2969 9c3c e514 84bd 4481 aebd
00000270: eda7 f0bc 8f74 613b 5e05 83bb 9a77 893d
00000280: 9ecc 0bbc f1e0 37bc a9d1 a03d 3ef2 25bd
00000290: ef00 a83d 75d3 a3bb c904 6ebd fc9b bc3c
000002a0: 1db3 2abd b1fb 87bd 68fe 0c3d d75a 2abd
000002b0: 0487 d43d 0203 473d f7c2 b5bc 7fe5 e0bc
000002c0: ed59 f33c 7d6b 283c 16cc 883c 961f 213d
000002d0: 721b 69bd c2c4 e33c cda3 86bd f5b2 80bd
000002e0: c37e 8a3b 8fe5 253d f880 c5bc b140 11bd
000002f0: b30c ae3d a7e8 403d dfc6 7b3d 194d 9fbd
00000300: 9e80 aebd cdd9 053c d1b1 063d 364d 703d
00000310: 5c8c 4cbd f2f4 223d e707 8c3d c70f 283d
00000320: 2e0b 5ebc 166f a8bc 7703 1f3d 456e 293c
00000330: 93d4 dd3d b07d 25bc 318b 093d 05fb 02bd
00000340: feb0 53b9 8ba5 623c 0e3c 3c3d 8798 8cbd
00000350: ffc9 883d 1dd9 553c dbe1 bcbd 5d99 00bc
00000360: d5b9 a8bd 7931 013d 5703 863d 3bd2 e4bc
00000370: e99f 2d3d a012 f23c 3b00 253d 417d 59bc
00000380: 66bc 31bb 2ef2 e8bc 479e 3c3d 8f2a 6b3d
00000390: 3b09 21bd 4a00 12bd 1490 203b 1362 3c3b
000003a0: 94f9 963c eea4 a73c 39c3 9bbd 8c74 523c
000003b0: 98b5 7dbc 2e62 a2bd 0758 8fbd 13eb 82bd
000003c0: cd2a 003b 202f c73c d110 8dbc 8d33 9c3b
000003d0: 9ca6 723d 2fd9 b03d aec1 253d 13ca 2abd
000003e0: 5e5a ff3c c90c 753d 7f54 823d 8f7c 973c
000003f0: 4c06 49bd b7e9 38bd f4a9 e8bd 933b d53c

fc.bias f4 [10]
0.030347824 -0.023371475 0.034049932 -0.026690468 -0.023209425 -0.018372942 -0.028873542 0.050722256
-0.038940847 0.024175385
00000000: 009c f83c 8975 bfbc f177 0b3d f8a5 dabc
00000010: b121 bebc da82 96bc 3588 ecbc 24c2 4f3d
00000020: 7080 1fbd 750b c63c
